…
7-c35577123a27","executionInfo":{"status":"ok","timestamp":1579056583261,"user_tz":-540,"elapsed":1645,"user":{"displayName":"최진영","photoUrl":"","userId":"04611147725648038476"}},"colab":{"base_uri":"https://localhost:8080/","height":577}},"source":["model.summary()"],"execution_count":0,"outputs":[{"output_type":"stream","text":["Model: \"sequential_1\"\n","_________________________________________________________________\n","Layer (type)                 Output Shape              Param #   \n","=================================================================\n","conv2d_1 (Conv2D)            (None, 148, 148, 32)      896       \n","_________________________________________________________________\n","max_pooling2d_1 (MaxPooling2 (None, 74, 74, 32)        0         \n","_________________________________________________________________\n","conv2d_2 (Conv2D)            (None, 72, 72, 64)        18496     \n","_________________________________________________________________\n","max_pooling2d_2 (MaxPooling2 (None, 36, 36, 64)        0         \n","_________________________________________________________________\n","conv2d_3 (Conv2D)            (None, 34, 34, 128)       73856     \n","_________________________________________________________________\n","max_pooling2d_3 (MaxPooling2 (None, 17, 17, 128)       0         \n","_________________________________________________________________\n","conv2d_4 (Conv2D)            (None, 15, 15, 128)       147584    \n","_________________________________________________________________\n","max_pooling2d_4 (MaxPooling2 (None, 7, 7, 128)         0         \n","_________________________________________________________________\n","flatten_1 (Flatten)          (None, 6272)              0         \n","_________________________________________________________________\n","dense_1 (Dense)              (None, 512)               3211776   \n","_________________________________________________________________\n","dense_2 (Dense)              (None, 1)                 513       \n","=================================================================\n","Total params: 3,453,121\n","Trainable params: 3,453,121\n","Non-trainable params: 0\n","_________________________________________________________________\n"],"name":"stdout"}]},{"cell_type":"code","metadata":{"id":"Yf9iUt6OGtlh","colab_type":"code","outputId":"7e87aa7d-7c34-438a-df0c-625e1355c67d","executionInfo":{"s
…
